results/model.pth (torch, 353681 bytes, 13 tensors)

lstm.weight_ih_l0 f4 [256, 15]
000000 c3 c1 34 3e c1 e3 e9 3d 22 97 7e 3c a2 52 21 bd
       0.17652039 0.11420394 0.015538963 -0.039385445
000010 8d 06 9f 3d eb 8c 5f 3d 4b 67 89 bd a9 41 99 3d
       0.07764921 0.05457775 -0.06709155 0.07483227
000020 1c 84 f6 3d d2 31 91 bd 45 4d bf 3d b4 02 3e 3d
       0.120369166 -0.070895806 0.0934091 0.046389297
000030 c9 62 19 bd ce f2 82 bd 06 d1 3c bd c7 5d 51 bc
       -0.037447724 -0.063939676 -0.046097778 -0.012778706
000040 c5 35 07 3e a6 72 4e 3c 7c ec 5b 3e db 69 19 3e
       0.13204105 0.0126005765 0.2147693 0.14981787
000050 ed 86 da bc 82 ed 60 3e c6 ca 1b 3c 46 45 68 3c
       -0.026675666 0.21965602 0.009508794 0.014176672
000060 05 ff 83 3e c5 4f 36 3d 32 e7 e0 3d be 86 2e bc
       0.25780502 0.044509668 0.10981597 -0.010652242
000070 7b 85 2c 3e 02 03 38 3d 4c 7a f1 3c 7a 99 b0 bb
       0.16847794 0.044924743 0.029477261 -0.0053893896
000080 1a 6c 4d bd 13 c4 73 3c cb fa 8f 3d 09 16 09 bd
       -0.05015192 0.014878291 0.07030257 -0.03346828
000090 cf dd 86 bc 08 22 01 3e 88 7a 11 bd 2d a7 9a 3d
       -0.016463188 0.12610638 -0.035517246 0.075514175
0000a0 df 42 de 3d 74 81 16 3e 25 95 91 3d eb a5 66 3d
       0.108525984 0.1469782 0.07108525 0.056310575
0000b0 7e ba 09 3e ed f8 ef 3c b4 0d ad bd ea 8d be 3d
       0.13450047 0.029293502 -0.08449879 0.09304412
0000c0 a4 77 5f 3b 48 1e b2 3d fc cc 8a 3d c1 54 f3 bb
       0.003409841 0.08697182 0.06777379 -0.007425875
0000d0 ba 49 ed 3d f2 72 10 bd da 5d bb bc 9d 05 f5 3d
       0.11586328 -0.03526587 -0.0228719 0.11963961
0000e0 c8 fb 74 3d b9 2e d2 3d fc b8 57 bd 40 ed a3 3d
       0.05981043 0.10262818 -0.05266665 0.08004236
0000f0 87 1e 2f 3e 57 a6 88 bc 3e 5a e8 bb 5a 7c e7 3d
       0.17101489 -0.01668088 -0.007090836 0.11303015
000100 8a ad 43 bc 77 2c df 3d f5 a1 b7 3d bc be 3b 3d
       -0.01194323 0.10897153 0.08966438 0.045836195
000110 0d 48 d5 bd 00 5e 28 3d 17 95 57 bd 5f 42 ad bd
       -0.10414133 0.04110527 -0.052632418 -0.08459925
000120 fc 76 75 3d a6 10 61 bb fc 6b 10 3d 5d a9 04 3e
       0.059927925 -0.0034342199 0.035259232 0.12955232
000130 01 e8 9d bd 6c 15 ca 3c 8e 10 79 3c a5 4b 05 bd
       -0.07710267 0.024668418 0.015201701 -0.032542843
000140 35 e1 a5 3d 2b bf a5 bd 54 22 71 3d e1 27 ea 3d
       0.080995955 -0.08093103 0.05887063 0.114333875
000150 58 5b 89 3d 59 5f 0b bd 96 bb 75 bd 47 e9 42 bd
       0.067068756 -0.034026477 -0.05999335 -0.04758575
000160 45 1b cd bd 35 d6 dc bd b2 0f 49 bd 21 9a c4 3d
       -0.10014967 -0.10783044 -0.049087234 0.0959971
000170 eb eb 08 3d e7 78 2b bd e8 fd a2 3d 2c 3d 3b 3d
       0.033428114 -0.04186335 0.07958585 0.045712635
000180 60 72 0a 3e 1c c4 06 bd b4 53 d8 3d a3 1a 85 3d
       0.13520193 -0.03290187 0.1056284 0.06499221
000190 cc eb 80 3d c6 23 8f bd 49 7c a3 bc d8 ff c1 3d
       0.06294975 -0.06989245 -0.019956725 0.094726264
0001a0 1a 0c 21 3d 8c bf 23 be d3 9e c5 3d f4 65 9c bd
       0.03931818 -0.15991038 0.09649434 -0.076366335
0001b0 e1 53 f3 3d 23 83 73 bd 79 8e 3b 3e 6c 06 39 3c
       0.11881233 -0.059451234 0.18316068 0.011293035
0001c0 f6 64 ca 3d 9f 78 8a bb 81 ed 24 bd 1d d8 86 3d
       0.09882538 -0.004225805 -0.040265564 0.06584189
0001d0 18 fd 9e 3d e1 c2 c0 3d a5 57 b3 bd 2f af b3 bc
       0.077631176 0.0941217 -0.08756951 -0.02193412
0001e0 8f fa 65 3e ba 05 08 3e aa e7 a8 3b 9f 9a 78 3d
       0.22458862 0.13283435 0.0051545696 0.060694333
0001f0 fe fd fb 3d f3 46 51 bd 33 e5 ca 3d c5 41 28 3c
       0.123043045 -0.051093053 0.099069975 0.010269587
000200 0d fb cf 3d c8 5e ed 3d 30 cd d6 3d 3c a0 fc bc
       0.10155306 0.11590344 0.10488355 -0.030838124
000210 9f a4 2a 3e d5 5f 3a 3d 82 3a b8 39 94 02 89 bd
       0.1666436 0.04550155 0.00035138807 -0.06689945
000220 8b 4d b7 bd d4 05 85 3d ed 31 04 3d 43 ff 43 bc
       -0.08950337 0.06495252 0.032274175 -0.011962715
000230 fb 4c a2 bd b2 13 16 bd aa e0 de 3b c5 0c bf bd
       -0.07924839 -0.036639877 0.0068016844 -0.093286075
000240 f3 60 46 3e 44 3f e6 3d 39 fd 4c be 6d ce 29 bd
       0.1937292 0.11242536 -0.20018472 -0.04145663
000250 a4 6b be bc fc 5b 0c 3e f4 6a 09 be 9f d7 21 3d
       -0.023244686 0.13706964 -0.13419706 0.039512273
000260 50 ca 9c bd 2c 6a 06 3c 78 f0 db bc e9 c8 ae bd
       -0.076557755 0.008204024 -0.026848063 -0.08534414
000270 6e 15 1d 3d 64 e5 b5 bd 51 a3 29 bd a2 9b 6c bd
       0.038350515 -0.088816434 -0.041415516 -0.05776561
000280 f1 50 21 3e 9f 2c a7 3d ec 97 cf bd 7c 03 b4 bc
       0.15753533 0.08162808 -0.10136399 -0.021974318
000290 0d f9 a0 3d 73 58 f0 bd 7b d0 90 3d 85 a0 ea 3c
       0.07860003 -0.1173562 0.070710145 0.028640995
0002a0 c1 85 fc 3d 2d de d0 3d 98 d4 9e 3c 12 c1 d4 3d
       0.12330199 0.10198627 0.019388482 0.10388388
0002b0 3a 05 ad bd 2b 6e 9b bd 63 b9 90 bd 83 2c a2 3d
       -0.084482625 -0.07589372 -0.0706661 0.07918646
0002c0 9a d3 5f bd d8 47 1f be 51 c6 d2 3d 88 24 ea bc
       -0.05464516 -0.1555475 0.10291732 -0.028581873
0002d0 63 4b 42 bc 58 aa c0 3c 76 9b e8 3d a3 1a fc 3d
       -0.011858794 0.023518726 0.11357777 0.12309768
0002e0 7c 28 00 3e 94 7e 7d 3d b3 d8 1c 3d ad 90 c2 3d
       0.12515444 0.061888292 0.038292598 0.09500251
0002f0 d6 ef 89 3d da 5b 3d 3e 02 15 0f bd fb 8f 1b bd
       0.06735198 0.1849207 -0.034932144 -0.037979107
000300 c2 a4 9b bb 10 19 05 3e 9a f6 9c bd 89 32 c4 3d
       -0.0047498653 0.12997842 -0.07664223 0.09579951
000310 03 c7 1a 3e 62 b7 a9 bd ad 58 c7 3d ff 31 ad 3c
       0.1511498 -0.082869306 0.097337104 0.021142004
000320 7f ac c2 3d dc 7a c7 3d 42 fe e9 bc 64 ea 01 bd
       0.09505557 0.097402304 -0.028563622 -0.031717673
000330 65 c3 e8 3d da 7a da bd 31 6f ef 3c 75 23 64 3b
       0.113653935 -0.10667963 0.029227825 0.0034811173
000340 cd 37 f9 3d be ac b8 3d a7 55 54 3d 42 0f 82 3d
       0.12168846 0.09017323 0.051839497 0.063505664
000350 00 5d 9b bd 11 f6 53 3d 4c 50 4f 3d d3 05 e1 bd
       -0.07586098 0.05174834 0.050613686 -0.10987439
000360 f1 13 71 3d 91 89 2a bd d8 6b a2 bc af b3 87 bd
       0.05885691 -0.0416351 -0.019826815 -0.06626069
000370 2b e3 d1 3b 89 15 88 bc 4b 80 1c 3e 27 30 ad bd
       0.0064052544 -0.016611831 0.15283315 -0.0845645
000380 e3 4c c6 3a a7 41 2f 3e 36 01 28 bd 61 50 fc bc
       0.0015129115 0.17114888 -0.04101678 -0.030800046
000390 de b2 14 3e 35 a5 91 3d 15 ea 85 3d 65 59 84 bd
       0.14521357 0.07111589 0.06538788 -0.06462363
0003a0 57 70 7c bd 4f e6 b4 3c 2b 8d c1 3d f3 51 b1 3d
       -0.061630573 0.022082476 0.09450754 0.08658209
0003b0 1a 62 75 bc 08 fa b8 3d ac d0 0b 3e 95 ad 83 3d
       -0.0149770025 0.09032065 0.13653821 0.064295925
0003c0 5b 4c ce 3d 3c 5d a0 bc b0 ad d5 3d 0c 2f 65 bd
       0.100731574 -0.019575708 0.10433519 -0.05595307
0003d0 2d 52 80 bd 40 52 98 3d c0 7f 06 3e ac 18 f0 3d
       -0.06265674 0.07437563 0.1313467 0.11723456
0003e0 4d 53 b8 bd 44 75 88 3d d8 c3 34 bb 30 3f ec 3d
       -0.09000263 0.06662992 -0.0027582552 0.115354896
0003f0 3e d7 ab 3d a9 65 3a bd 97 9a 9e bd 5b 63 36 3e
       0.083906636 -0.045507107 -0.077443294 0.17811339

lstm.weight_hh_l0 f4 [256, 64]
000000 75 3b 4b bd 75 fb 28 3d e6 87 61 3d 62 f6 54 3d
       -0.04961725 0.041255433 0.055061243 0.05199278
000010 e3 f2 0c be 3e 79 d7 bc 68 3d ad 3b 66 75 b9 3c
       -0.13764529 -0.02630293 0.005286861 0.022638988
000020 e4 0f 95 3d 93 f4 b5 3d 35 a6 01 3e fa 4f 1e 3d
       0.072784215 0.088845395 0.12661059 0.03865049
000030 0a 03 ea 3c 88 38 12 3e 56 fd 51 bc f3 6b 28 bd
       0.028565902 0.14279377 -0.012816748 -0.041118573
000040 86 8c 4e 3d 1a ef cf 3d e3 8b ac bd cc 34 de 3d
       0.050426982 0.10153027 -0.08425119 0.10849914
000050 77 e5 9b 3d a0 46 60 bd bf 06 cb bd fc b4 a5 3d
       0.07612126 -0.054754853 -0.09913396 0.08091161
000060 57 46 fc 3d bb 18 af 3d de 26 b2 3d 7e dd 65 bc
       0.12318104 0.08549639 0.086988196 -0.014029859
000070 73 38 e8 3b 84 df a9 3d 97 a2 07 bd c3 70 b8 3c
       0.0070868074 0.08294585 -0.033114042 0.022514706
000080 5f 67 98 bc 7a 9e 9d bd c7 db 68 3d 13 02 c1 3d
       -0.018603979 -0.07696243 0.05685022 0.09424224
000090 30 13 c3 bd bc f5 e6 bc 94 96 67 3d e8 26 c4 3d
       -0.09525144 -0.028193347 0.056540087 0.09577733
0000a0 ac 70 99 3d d9 7f 68 3d c3 63 a5 bb 2a ee 4e bd
       0.074921936 0.05676255 -0.005047293 -0.0505201
0000b0 f0 98 35 bd 67 0a 4e bd 66 f2 ef bc 52 95 24 3d
       -0.044335306 -0.05030289 -0.02929039 0.040181465
0000c0 5f d0 c1 bd 09 7c d1 bd f0 78 d8 bd bb 38 05 be
       -0.09463572 -0.10228736 -0.10569942 -0.13009922
0000d0 bc b1 c4 bd ac c2 41 3c 0a 4e 04 be 0d 42 54 3d
       -0.09604213 0.011826199 -0.12920395 0.051820803
0000e0 68 ca c0 bd 0f f1 9f 3d 37 3f 87 ba 79 b0 0a 3d
       -0.09413606 0.0780965 -0.0010318522 0.033859704
0000f0 cd 8c d4 bd f7 4e 0e 3e 93 ea 93 bd ad a4 0c be
       -0.10378418 0.1389731 -0.07222476 -0.13734694
000100 24 26 8b 3e 2f b5 9b bd 98 9c 8a be c6 46 3b be
       0.27177536 -0.076029174 -0.27072597 -0.18288717
000110 d0 48 14 be 56 eb 3f be 75 47 2b 3e 90 88 cb bd
       -0.14480901 -0.18742117 0.16726477 -0.099381566
000120 34 6c 4a be af ed 2c 3e 7a 34 a4 3e 4e 76 a7 be
       -0.19767839 0.16887544 0.32071286 -0.32707447
000130 c6 b8 46 3e d4 22 4b 3e b5 b1 43 be 4c 34 1f 3e
       0.19406423 0.19837505 -0.19110759 0.15547293
000140 59 ef 72 3e b9 73 bf 3d b0 08 66 3e ee 8d 84 3e
       0.23724116 0.09348244 0.22464252 0.25889534
000150 ed 75 fc bd 65 9e 6e be 12 fd 95 be e8 84 7c 3e
       -0.1232718 -0.2330261 -0.2929464 0.24660075
000160 53 40 f3 3c 01 3c 7b 3e 3f b0 54 3e cb 74 95 3e
       0.029693758 0.24534608 0.20770358 0.29190668
000170 8b d4 5f be f2 64 d3 bd 89 05 7e 3e fb eb 39 3e
       -0.21858422 -0.10321988 0.24806799 0.18156426
000180 b0 6c 8d be d4 84 de bd f9 2a f9 3d c8 9e 36 3e
       -0.27621984 -0.10865179 0.121663995 0.17834008
000190 0c 20 5c be 70 ae 26 be 3a 8c 70 3e 11 db 78 bd
       -0.214966 -0.1627748 0.23490992 -0.060755793
0001a0 cd 01 6a be ab 08 7f 3d 32 cd 9b be fc 78 45 3e
       -0.2285225 0.062264126 -0.3042999 0.19284433
0001b0 04 37 6a be 0f 25 32 3e 26 25 b6 bd a6 2d 6e bb
       -0.2287255 0.17396949 -0.08893804 -0.0036343127
0001c0 b7 2f f2 bd d9 66 03 3e f9 bf d1 bd 61 9f 48 bd
       -0.11825507 0.12832202 -0.10241694 -0.04898012
0001d0 a7 dc 69 be 7b a3 9b bd a5 77 a9 3d f6 ed 95 3e
       -0.22838078 -0.07599541 0.082747735 0.29283112
0001e0 e5 45 a5 be cf f1 5e bd 39 db d0 3b 0a 44 66 be
       -0.32279888 -0.054429825 0.0063737896 -0.22486892
0001f0 80 3a 21 be ff f1 30 3e 83 eb ae 3c 63 d4 e9 bd
       -0.15744972 0.17279814 0.021352535 -0.11417463
000200 e0 41 04 bd a2 09 c7 bd f6 a2 bd bc eb f9 97 bc
       -0.032289386 -0.09718634 -0.023148995 -0.018551787
000210 03 82 a9 3d a2 32 7e 3c 06 ca 38 bd 0f d9 9f 3d
       0.08276751 0.0155150015 -0.04511454 0.078050725
000220 8a 4c 8f 3d 6b 92 fb 3d c0 9e ab bc 33 7a 35 bd
       0.069970205 0.122837864 -0.020949721 -0.04430599
000230 af 0f 84 bd 6b d5 18 3d 7d 7d 4c bd 33 b2 1a 3e
       -0.06448304 0.037312906 -0.049924362 0.1510704
000240 86 32 3e 3d 96 a1 d7 3c 76 ee 25 3e 69 fa 9d bc
       0.0464349 0.026322167 0.16204247 -0.019284444
000250 f9 98 7d bc e8 da 24 be b4 3c cb bd 5e a5 89 bd
       -0.015478366 -0.16099131 -0.099236876 -0.067209944
000260 02 88 b4 bd 9d 98 13 bd 3d e1 fd 3d 23 65 dd 3c
       -0.08815004 -0.036034215 0.123964764 0.027025765
000270 1a 8b 24 bd 7e a1 19 3c c0 b9 a0 3d d3 ba 07 3c
       -0.04017172 0.009376882 0.07847929 0.008284288
000280 35 3d 47 3d d2 4c cc bd df 2f be 3c 3a 06 ea 3d
       0.048642356 -0.0997559 0.023216186 0.11426969
000290 37 77 09 be 8d a6 c8 bc fa 01 f3 3c 7e 72 1e 3d
       -0.13424383 -0.02449348 0.029664028 0.038683407
0002a0 22 40 29 be b6 81 09 3e 4a 59 ca 3c 1a 8c 03 bd
       -0.16528371 0.13428387 0.02470078 -0.032116033
0002b0 49 44 9e 3d 56 27 c2 3d 4f 42 22 bd 1a 2d 9b bd
       0.07727868 0.09480159 -0.039614018 -0.07576962
0002c0 b5 51 8a bd 40 9c 89 3c 7e 9c 97 3c c4 6f 9a 3d
       -0.06753866 0.016798139 0.018507238 0.07540849
0002d0 4a 8a f3 3c 7a 0c 1c be fe 69 4b 3d 15 6e 2b 3e
       0.029729027 -0.15239134 0.04966163 0.16741212
0002e0 45 72 cc bd cb e5 c3 3d ff 3b ed bd 38 83 93 bd
       -0.09982733 0.09565314 -0.11583709 -0.07202762
0002f0 be 98 05 be 8c bf d4 3d ba b9 f4 3d 58 fd bc bd
       -0.13046548 0.10388097 0.11949487 -0.09228009
000300 78 40 9d 3c ea 36 b3 bd 0b e0 be bc 90 19 a2 bd
       0.01919578 -0.087507084 -0.023300191 -0.07915032
000310 7a c1 0a be 7f cc 3f 3c 44 8c 24 3d ac 69 5e bd
       -0.13550368 0.0117064705 0.04017283 -0.054299995
000320 b4 18 5e 3d 4d bb 05 3e cf 27 20 be 93 db 8e 3d
       0.054222777 0.13059731 -0.15640186 0.06975474
000330 02 7f 16 be 90 26 b1 bd 30 90 0c be a3 ad a5 3d
       -0.14696887 -0.08649933 -0.13726878 0.08089759
000340 09 61 9a bd 1c 71 5a 3b c6 98 b9 bd ef 01 49 3d
       -0.07538039 0.0033331579 -0.09062342 0.04907411
000350 6e d2 0f be 4e b0 8f bd 1e b5 c2 bd 0d 48 1b 3e
       -0.14045116 -0.07016049 -0.095072016 0.15164204
000360 b7 39 2f 3d a0 ed f0 3c 4e 6e 06 be cb b8 9c bd
       0.04277965 0.029410183 -0.13128015 -0.07652434
000370 83 fc aa 3d 5e a9 e7 bc ca a8 a7 bd 50 64 de bd
       0.08348944 -0.028279003 -0.08186491 -0.10858977
000380 37 58 d1 3c 22 c1 ea bd d8 db 8f 3d b1 83 6a bd
       0.02555476 -0.114626184 0.07024354 -0.057254497
000390 b8 de f4 bd 13 c7 b2 3c 2e 7b 6d 3d d3 83 df 3d
       -0.11956543 0.021823442 0.0579788 0.10913815
0003a0 ab e4 97 bc e5 f0 d2 bd a3 85 f7 bd d5 99 19 3e
       -0.018541655 -0.10299853 -0.12086036 0.15000089
0003b0 40 9b 83 3d ed fd 9f 3d 5e a5 16 bd fc f2 0e 3d
       0.06426096 0.078121044 -0.0367788 0.034899697
0003c0 67 02 09 bd da ad b6 3d ae f2 7b 3d f6 78 1e bd
       -0.033449557 0.08919878 0.061510734 -0.038689576
0003d0 29 54 9d 3d 47 c8 02 be b4 02 0d 3e 29 84 1b 3e
       0.07682068 -0.12771712 0.13770562 0.15187134
0003e0 3c e6 0f 3e 1d c3 6c 3d e9 05 08 bc 27 9e c0 3d
       0.14052671 0.057803262 -0.00830219 0.09405165
0003f0 37 7c c7 3d 86 28 0b 3e e6 a5 b6 3d 9e 00 de 3d
       0.09740489 0.13589677 0.08918361 0.108399615

lstm.bias_ih_l0 f4 [256]
000000 4e ab 07 3e ff 38 bf 3d 96 66 2d 3d e8 e5 fc 3d
       0.13248941 0.09337043 0.04233416 0.12348539
000010 74 a9 00 3e c9 3b e3 bd 02 da 1a bd 60 36 34 3d
       0.12564641 -0.110953875 -0.037805565 0.04399717
000020 3c bc 1e 3d 51 ff f4 bc f0 5e 96 bd e0 f7 a9 3d
       0.038753733 -0.0299069 -0.07342327 0.082992315
000030 8e 01 20 3d a5 e6 a8 3d dc 43 34 bd 59 af 1c bc
       0.039063983 0.08247117 -0.04401003 -0.0095632905
000040 29 51 2f 3d 87 83 5b 3d e2 5a f2 bd 22 ff 49 3c
       0.04280201 0.05359223 -0.11833741 0.012328895
000050 bb d9 f1 3d 0b a4 2b bc 08 63 2a bb b3 ff cb bc
       0.11809107 -0.010476123 -0.0025998969 -0.0249022
000060 16 0e a0 bd 04 d2 9f bd e4 9b 2a 3e 83 1a 63 3c
       -0.07815187 -0.07803729 0.1666103 0.013861301
000070 3f c4 f6 bc b6 5c db 3b 1d 5a 95 bd 7b 8c e0 3d
       -0.030122874 0.0066944016 -0.07292578 0.109642945
000080 f6 59 d9 3d 76 84 12 3e c6 8c ae bd 15 ec fa ba
       0.10612862 0.14308342 -0.08522944 -0.0019143844
000090 ac 2b 05 bd 46 06 c2 ba 2f 16 04 3e 41 0c ab 3d
       -0.032512352 -0.0014802895 0.12899087 0.083519466
0000a0 15 72 ac 3d 3d 9a bb bd 4d 47 86 bc 74 ff 05 3b
       0.08420197 -0.09160278 -0.01639142 0.0020446451
0000b0 20 e4 6e bd ef 1f 1f 3e 56 dd bf 3d 65 d6 ec 3c
       -0.058323026 0.15539525 0.09368388 0.028910825
0000c0 ef bf b1 bd 5d af 94 3d b5 b9 95 bc 81 ee cf 3d
       -0.086791866 0.072600104 -0.018277029 0.10152913
0000d0 c9 1f cf 3d 18 24 d5 bd 7a bd 5d 3d 89 79 ec 3c
       0.101134844 -0.10407275 0.054135777 0.028866546
0000e0 33 aa 2f 3d 6c 21 20 3c 66 2c f1 bb 82 f7 df 3d
       0.042886924 0.009773593 -0.007360029 0.1093588
0000f0 70 e9 71 bc ad 38 92 3d 85 b3 02 3e 4f 8c b7 bd
       -0.0147651285 0.07139716 0.12763794 -0.089623086
000100 fc 2e af bb 69 cf 47 bd 64 e9 ff bc 42 99 5d 3c
       -0.005346177 -0.048781786 -0.031239219 0.013525309
000110 f7 38 bb 3d ab 41 9c bb 80 63 4a 3d ed c2 ec bd
       0.091417246 -0.0047685704 0.049411297 -0.11560617
000120 4a ca df 3d d7 b0 23 3d 23 85 8b bd dd c8 17 be
       0.109272555 0.03996357 -0.06812503 -0.14822717
000130 5b 4d 29 3d e0 c5 e8 bd 81 e5 99 bd 09 1b 75 3d
       0.041333538 -0.11365867 -0.075144775 0.059840236
000140 ec 82 64 3d 40 db c5 3d 91 63 b6 bd ff dd a9 bd
       0.05578892 0.09660959 -0.089057095 -0.082942955
000150 d8 58 09 bd 5c a9 11 3d 99 4b 7e bd ee 72 74 3d
       -0.033531994 0.035561904 -0.062083814 0.059679918
000160 a1 a1 8d bd a6 74 01 3d b3 91 05 3c 81 01 f5 3d
       -0.06915594 0.031605385 0.008152413 0.119631775
000170 dd 1d 51 3d 6f 9b a5 3d 86 f2 54 bd e8 92 b4 3d
       0.05105387 0.08086287 -0.0519891 0.08817083
000180 71 7d 0e 3c 5b 6a 6c bc 4c e6 21 3d 3b a6 42 3d
       0.0086969 -0.014429654 0.03952627 0.04752181
000190 9b fa 49 ba 5d 0b aa 3d ac e3 06 bc c2 9f 55 bd
       -0.00077048846 0.083029486 -0.008232992 -0.05215431
0001a0 ef ec 7c bd e5 f5 00 be 2f c5 8f bd cf 2b 3d 3d
       -0.061749395 -0.12593801 -0.07020032 0.046184357
0001b0 41 58 6c 3d 6d 6c 5a 3c 7b 23 a5 bd f1 82 0b be
       0.057701353 0.013331515 -0.08063408 -0.13624169
0001c0 1b aa df 3c 2f ae b1 3d 79 19 05 bd 8d b7 af bd
       0.027302792 0.08675801 -0.032494996 -0.085799314
0001d0 86 65 46 bd 4d 65 a6 3d 8b 9e 4c 3d cc fc f4 3d
       -0.048436664 0.0812479 0.049955886 0.1196228
0001e0 cd 21 4b 3c 63 3a cb 3d 0e dd 76 3c 46 b7 bf 3d
       0.012398195 0.09923246 0.015067352 0.093611285
0001f0 70 b1 1c be 68 99 7a bc ad 0e 55 bd 0e cd 7e bc
       -0.15302062 -0.015295364 -0.05201595 -0.015551819
000200 90 d0 c9 3a 7d d9 8a bd 40 ad ec bd 35 34 74 bd
       0.001539724 -0.06779764 -0.11556482 -0.0596201
000210 be 3a c1 bd a4 e9 93 bd 9b 6b 82 bd 7c a5 b0 bd
       -0.09435032 -0.07222298 -0.0636818 -0.08625314
000220 70 34 49 bd 8b 1e fe 3d 1a 57 9f bc 62 c9 e8 bd
       -0.049122274 0.12408169 -0.019450713 -0.11366536
000230 c4 d7 51 bd 5d 81 cd bc 4b 6b 06 bd 26 84 f9 3c
       -0.05123116 -0.0250861 -0.032817166 0.030458521
000240 d8 84 57 3d 5f 13 7c bb 79 22 1b bd 5b 1f e1 3d
       0.052616924 -0.0038463695 -0.037874673 0.10992309
000250 2a 97 ac bd 37 8b a3 3d 06 64 34 bd 2e 93 24 bd
       -0.0842727 0.079855375 -0.044040702 -0.040179424
000260 07 10 c3 bd f5 aa 02 bc b7 16 3b bd da 03 21 3d
       -0.09524541 -0.00797533 -0.04567596 0.039310314
000270 f9 6f cf 3d e5 1c 92 bd 2d f5 ff 3c f7 c1 85 bd
       0.10128779 -0.071344174 0.031244839 -0.065311365
000280 19 26 88 bd 71 cf fb 3d d4 10 f4 3d 96 e0 8b 3b
       -0.066478916 0.12295426 0.11917272 0.004268716
000290 ea bf ce bd 5b 6a cf 3d b3 d3 7c 3c 48 bd 23 3c
       -0.100951985 0.101277076 0.015431332 0.009993859
0002a0 8c a0 74 bd 09 15 95 bc eb ad 98 3d e2 50 57 3d
       -0.059723422 -0.018198507 0.07455047 0.05256737
0002b0 b3 bc cd bc 8f fe 01 bd 4f 7c 60 3d cc 73 c0 bd
       -0.025114393 -0.031736907 0.05480605 -0.093970865
0002c0 77 c7 e9 bd d5 21 e0 ba 76 44 b2 bd cb 1f 1d bd
       -0.11414998 -0.0017099926 -0.08704464 -0.0383604
0002d0 5c bc 91 bd b6 26 cf bb f8 07 23 bd ca 49 ea 3d
       -0.07116005 -0.0063217534 -0.03980252 0.114398554
0002e0 27 b1 99 bd d4 fe aa bd 05 a6 a3 3d 30 97 7f bd
       -0.07504492 -0.08349386 0.0799065 -0.062400043
0002f0 f4 b5 15 bd ba 05 6a 3d 64 35 59 3d 0a 3a 4a 3d
       -0.036550477 0.057134368 0.053029433 0.049371757
000300 9e 01 99 bd e0 e9 36 3e 90 ad 2d 3d db ad e6 3d
       -0.074710116 0.17862654 0.04240185 0.11263629
000310 28 94 4b bd 60 27 98 3d 86 97 ec bb 0d af 93 3d
       -0.04970184 0.07429385 -0.0072202114 0.07211123
000320 08 5e ea 3d f1 f7 31 3e 71 c7 86 3d 76 42 13 3e
       0.11443716 0.17379738 0.06581009 0.14380822
000330 03 e0 c2 3b 53 bd 6e bd af 24 6f bd 01 49 94 bd
       0.0059471144 -0.058286022 -0.058384594 -0.07240487
000340 50 5d 12 3d 4e d9 d5 ba 66 e2 28 3d 15 62 0a bd
       0.03573352 -0.0016315372 0.041231535 -0.033784945
000350 b5 d6 0d bd 50 89 ae bb 3e 34 4d 3d ff 27 36 3d
       -0.03462859 -0.0053264275 0.05009865 0.044471737
000360 72 bb ae bd 61 58 24 bd 5c 54 8c 3e 56 6f 14 bd
       -0.08531846 -0.040123347 0.2740811 -0.03623899
000370 da 1a 3a 3d c4 37 cd bd af 83 f6 3d 43 15 15 3e
       0.045435764 -0.10020402 0.120368354 0.14558892
000380 31 eb 50 3d 87 26 18 3e b4 50 ec bc 8d d0 d7 3c
       0.051005546 0.14858447 -0.028847076 0.026344562
000390 94 d4 aa 3d 01 6c 0f bc 94 2f 11 3b a0 4b 45 3d
       0.08341327 -0.0087537775 0.0022153603 0.048167825
0003a0 d5 ea c2 bc 54 a3 0c 3c fb 95 d5 bd 71 18 92 3c
       -0.023793617 0.008583862 -0.10428997 0.01783392
0003b0 09 b0 14 3e 75 04 a7 3d ba 2c 96 3d 6a 6c 0e 3d
       0.14520277 0.08155147 0.0733275 0.03477136
0003c0 01 5c bf 3d 45 9e a8 bb 67 b9 a3 3d 20 fb e5 3d
       0.0934372 -0.0051458203 0.07994347 0.11229539
0003d0 ba fd 9a bd 7e b8 8c bd 7b 9e f9 3d b4 d5 15 3d
       -0.07567926 -0.068711266 0.12188431 0.036580756
0003e0 ba c2 1e 3d d9 7d 8b 3d 2c c0 4e 3d 70 16 38 bd
       0.038759924 0.06811113 0.050476238 -0.044943273
0003f0 ad b0 0d 3e c8 4d 03 bd 34 20 9b bd df e5 a4 3d
       0.13836928 -0.0320566 -0.07574502 0.08051657

lstm.bias_hh_l0 f4 [256]
000000 33 a6 48 bd 84 e4 3c bc c0 39 11 3d a9 19 3a bc
       -0.048986625 -0.011529092 0.035455465 -0.011358657
000010 de be 3b bc 32 39 19 3d de 39 b8 3d af fa 9e 3c
       -0.0114590805 0.03740806 0.08995412 0.019406645
000020 01 4c 54 3c a3 b9 85 3d 13 d5 d2 3c 9e 7b 5a bd
       0.012957574 0.06529548 0.025736367 -0.053340547
000030 6b 1b 5c bd 2b 07 06 3d a0 db 50 bd 1a ed 71 bb
       -0.053737085 0.03272168 -0.0509907 -0.0036915005
000040 59 c3 c8 3d 39 b3 36 3d f9 af 71 3c ca 7b bc 3c
       0.098028846 0.044604514 0.014751428 0.023008246
000050 a9 0d 1a 3e 81 13 0c bd 3d 1f 18 bd 7f 62 c9 3d
       0.15044273 -0.034198288 -0.037139166 0.0983324
000060 5e e2 e9 3d 7c b4 22 3d 20 6d b8 3d 04 82 87 3c
       0.11420129 0.039722905 0.09005189 0.016541488
000070 11 e1 2e 3d 5e a3 60 3c 4b 2d d2 bd 1b 34 52 3d
       0.04269511 0.013710825 -0.10262545 0.051319223
000080 98 83 03 3d 7f 7e 4a 3c 70 76 d2 3d 57 cf e6 3c
       0.03210792 0.012359261 0.102764964 0.02817504
000090 28 92 f2 bd 7d 7a 8b bd 73 ab 0e 3e 8b b8 cc bd
       -0.11844283 -0.06810472 0.1393259 -0.09996136
0000a0 82 de 98 3d 9e 11 6c 3b 11 39 00 bc ab 92 cf 3d
       0.07464315 0.0036021243 -0.007826106 0.101353966
0000b0 ae 19 66 bd 51 fa 43 3e ac 43 24 bd 60 21 a7 38
       -0.056176834 0.19138457 -0.0401036 7.969397e-05
0000c0 8f 51 47 3d dd f8 fb 3d 59 6a 9b bd 02 8f 72 3d
       0.048661765 0.12303326 -0.075886436 0.059218414
0000d0 c3 0f f4 bd a0 cb 6b 3d 16 a3 f9 3d af a7 ea 3c
       -0.11917069 0.05756724 0.12189309 0.02864441
0000e0 76 37 10 3e 0b 91 50 bd 99 d5 03 bd 95 db 29 3d
       0.14083657 -0.050919574 -0.032186124 0.041469175
0000f0 27 df 0d 3c a5 21 d2 3d c6 5c 84 bd fb 12 d0 3d
       0.008659161 0.102603234 -0.06463008 0.1015987
000100 cb 65 9b 3c d5 4f 22 3d e4 c8 a3 3d 28 ee 35 3d
       0.018969437 0.039626915 0.07997301 0.044416577
000110 27 f3 ab 3d f6 fc aa bd 1e 3f 84 3d 9b a4 de bd
       0.08395987 -0.0834903 0.06457351 -0.1087124
000120 12 b1 24 bd 48 7e 72 3d a1 94 fc bc f9 35 82 3d
       -0.04020793 0.059202462 -0.03083259 0.06357951
000130 1a c5 ca bc 98 e0 73 3d 85 88 89 3d 03 cb ce bc
       -0.024752188 0.05954036 0.06715492 -0.025243288
000140 01 87 3b bc 4e b4 43 3d 9f e0 9c bd f9 c4 e2 3d
       -0.011445762 0.047779374 -0.076600306 0.11072726
000150 3a 2b da 3d e5 6c 87 bc e9 f2 e8 bd 9b 74 1b bc
       0.10652776 -0.016531417 -0.113744564 -0.00948825
000160 ac 90 87 bd 85 4c b6 3d 63 01 93 ba 48 72 d1 bb
       -0.06619391 0.08901314 -0.0011215623 -0.006391797
000170 4a f9 a1 bb c3 77 85 bd ff f2 ef 3d 05 a8 25 3d
       -0.0049430477 -0.06516983 0.1171627 0.04044344
000180 d7 87 7a 3d 5f 44 51 3d 92 fe f8 3c ff db 2d 3d
       0.061164703 0.051090594 0.030394826 0.042446133
000190 76 a7 86 3d 95 ba bb bc 94 b6 b7 bb 85 5a 9a 3c
       0.065749094 -0.022916118 -0.005606482 0.018841991
0001a0 78 05 ca 3d d2 05 ba bc b9 cd 05 bd f2 df 44 3c
       0.09864324 -0.022707853 -0.032666896 0.012016283
0001b0 e1 50 3e 3d eb 60 5a bd 53 a7 cb 3d 23 51 68 bd
       0.04646385 -0.053315084 0.09944024 -0.056718003
0001c0 83 36 c4 bc 37 14 8f 3d de 2d 29 3d e2 91 c1 bc
       -0.023951774 0.069862776 0.041303508 -0.023629133
0001d0 19 de 82 3d 9c 7c 14 bd c3 5b 0f bd 22 e8 7f 3d
       0.06390018 -0.03625165 -0.03499962 0.06247724
0001e0 69 90 e5 bb 77 2d 8c 3d 7b 88 69 bd 80 ec 98 bd
       -0.0070057404 0.06844609 -0.057014924 -0.07466984
0001f0 9a 35 07 be 76 cb 25 3d 59 49 10 3c ef 98 98 bd
       -0.13204041 0.04047724 0.00880655 -0.07451045
000200 a0 c3 0f 3d 66 bc fd bc 08 5e 72 3d 45 81 fd bc
       0.035098672 -0.030973624 0.059171706 -0.03094543
000210 da 3e f4 3d c0 c1 83 bd 95 a4 7a 3d c4 3c 90 bd
       0.119260505 -0.06433439 0.061192114 -0.0704284
000220 2c 1c ec bc 2b ee ed bd 6a fd e0 3b 80 4b 9a 3d
       -0.028822027 -0.116176926 0.006866147 0.07533932
000230 b1 25 c6 bd 14 da e4 3d 32 37 e1 bd 17 03 79 bd
       -0.09675158 0.111744076 -0.10996856 -0.060793962
000240 12 e0 7c 3d c7 87 c8 3d c2 f4 c7 3b 2b aa a2 3d
       0.061737128 0.097915225 0.0061021755 0.07942613
000250 4f 29 9f 3d 35 1b ca bd 16 52 e7 bd 6e 4b 7c bc
       0.07771551 -0.098684706 -0.112949535 -0.015398843
000260 ad 22 00 3c d7 f7 35 3d 59 c8 cf bc b4 90 da 3c
       0.007820767 0.04442581 -0.025364088 0.026680328
000270 29 f3 d2 bd 5b 18 49 bd 5d 49 aa 3d 93 3b 04 3e
       -0.10300285 -0.049095493 0.08314774 0.12913351
000280 5d 1f fc bc 07 8e 89 bd 22 8d f9 bc da fe 9b bd
       -0.030776674 -0.06716543 -0.030462805 -0.076169685
000290 f1 cf e3 3c d8 2d 01 3e e4 15 c2 bc c8 00 8c 3d
       0.027809115 0.12615144 -0.023692079 0.068360865
0002a0 02 0b 91 3d d2 01 4f bd 4e 0a eb b9 6c 0a ab 3d
       0.07082178 -0.050538845 -0.0004483037 0.08351597
0002b0 df 53 bf bd 3c 32 88 3d 05 1c d1 bd b8 69 c6 bd
       -0.09342169 0.066502064 -0.102104224 -0.09688133
0002c0 10 69 bb bc 98 e5 5c 3d cf ed 5f bd 6b ab 0d bd
       -0.022877246 0.053929895 -0.05467015 -0.034587305
0002d0 08 5d c9 bd b3 99 0c bd 8e 02 4b 3c 2b 7f c7 3c
       -0.098321974 -0.034326266 0.012390746 0.02435263
0002e0 3e f8 02 be 63 b1 b0 bc d3 9c 50 3d 7f 86 85 bd
       -0.1279001 -0.02156896 0.05093081 -0.06519794
0002f0 6c 98 4f 3d a6 da 8d 37 10 c7 ef 3d 6c 8b c7 bb
       0.05068247 1.6910326e-05 0.1170789 -0.0060896184
000300 86 d0 eb 3d 8c 0d ad 3d 62 3f 58 3d 37 d4 b5 bd
       0.11514382 0.084498495 0.05279482 -0.088783674
000310 90 6c ad 3d 9c bb d0 bd 3c ad d3 bd 34 b4 98 3d
       0.08467972 -0.10192034 -0.10335776 0.07456246
000320 26 b5 47 bd c9 ef 35 3d 1f 4e db 3d 49 5c c8 bc
       -0.04875674 0.04441813 0.1070826 -0.024458067
000330 98 9b 39 3d 8b d7 24 bd 6e d8 b6 bd 69 30 7a bd
       0.0453144 -0.04024462 -0.089279994 -0.061081324
000340 f8 05 a4 3d ad 9a 0a 3d 6f 57 87 bd c4 78 17 bc
       0.08008951 0.033838917 -0.066084735 -0.009245101
000350 8c 4e 04 3e 16 fe a1 3d 50 b7 75 bd cc 97 d4 b9
       0.12920588 0.07909791 -0.059989274 -0.00040548889
000360 3c af 64 3c 43 b7 55 bd b0 35 5a 3e 28 10 01 3e
       0.013957795 -0.052176725 0.21309543 0.1260382
000370 7b 49 d7 3d 9e 54 04 3e c0 6f 69 bd 71 ba 32 3e
       0.10512062 0.12922904 -0.05699134 0.17453934
000380 2f 0e b8 3d ab 3f 52 3d 4d e3 96 3d 30 25 b4 3d
       0.0898708 0.05133025 0.07367573 0.087961555
000390 74 e9 d7 3d c7 84 e5 bc 2e 40 83 bd ff fe a2 bb
       0.105425745 -0.028017415 -0.06408726 -0.0049742456
0003a0 c6 44 1e 3c 3a d4 be 3d ac c9 5d bd 6f a5 33 3e
       0.009659952 0.09317823 -0.054147407 0.17543577
0003b0 a1 c4 6c 3d 67 f4 fe 3d 13 10 8d bd 7d 01 93 bd
       0.057804707 0.1244896 -0.068878315 -0.07178018
0003c0 bd 2e d7 bd 83 9a 9e bd 0f 4b 8c bd 08 90 87 bc
       -0.105069615 -0.077443145 -0.06850254 -0.016548172
0003d0 0a 97 86 bb dc 16 bd bd 6b 33 fa 3c 22 d9 10 3e
       -0.0041073607 -0.09232876 0.030542096 0.1414533
0003e0 c3 09 29 3d 06 bb 77 bc 76 df 38 bd bb 4d 92 bd
       0.041269075 -0.015120273 -0.045134984 -0.07143732
0003f0 5e d3 f0 3d a0 29 d3 3d 2c 71 da 3c 33 a0 d4 bd
       0.11759065 0.10310674 0.026665293 -0.10382118

lstm.weight_ih_l1 f4 [256, 64]
000000 6e 76 63 3e dd 3e 79 bd 6c d3 df bc d5 6a 2d be
       0.22213146 -0.060850967 -0.027322493 -0.16935284
000010 12 0b 56 bd 5f d4 5c be ca b9 bd 3d 36 cd 58 3d
       -0.05225665 -0.21565388 0.09263952 0.05293008
000020 ce aa 38 be 42 4c 1a be ee 49 8a 3d 98 4f 0b be
       -0.18033907 -0.15068153 0.06752382 -0.13604581
000030 5f 89 1c be 50 92 eb 3d 5a a2 ab bd 69 da 44 3e
       -0.15286778 0.11502516 -0.083805755 0.19223942
000040 12 26 2d 3e 30 3b 62 3d ca 84 56 3e 0d 85 45 3e
       0.16909054 0.055232227 0.20949093 0.19289036
000050 f9 50 cb bd 54 b9 45 be 00 3a 9c 3d ff d7 88 3e
       -0.09927554 -0.19308978 0.0762825 0.26727292
000060 64 11 75 bc 91 e9 62 3e 08 db d6 3c 95 32 01 3e
       -0.0149577595 0.22159411 0.02622749 0.12616952
000070 9e e5 61 be d1 72 29 bd 6d e0 a2 3d 41 19 e3 3d
       -0.22060248 -0.041369263 0.07952962 0.11088801
000080 53 f3 81 be 05 3f 35 be 94 d6 4e 3e 7a 29 ef 3c
       -0.25380954 -0.17699821 0.20199043 0.029194582
000090 0d c6 2e bd ad 01 6c be 7c 38 8f 3d 35 6e 0c bd
       -0.042669345 -0.23047514 0.069931954 -0.03428479
0000a0 2f 87 db bd 00 8f 4a 3c a8 8a 79 be de 79 c3 3d
       -0.107191436 0.012363195 -0.243693 0.09544729
0000b0 97 4a 46 be be 34 0f 3e 05 90 03 bd 03 58 50 3e
       -0.19364391 0.13984963 -0.03211977 0.20346074
0000c0 02 d7 73 be 20 92 c8 3d a2 27 bb bc 9f fe 09 bd
       -0.23812488 0.09793496 -0.022846047 -0.03369009
0000d0 2f b7 67 be a5 14 2f be 80 cb d1 3c 95 c1 f6 3c
       -0.22628473 -0.17097719 0.025609732 0.030121604
0000e0 84 52 0f 3e af 04 6f 3e f2 28 b2 bc 6c 4b c9 bd
       0.13996321 0.2334163 -0.02174804 -0.09828839
0000f0 b5 c9 92 be e7 5c 02 3e b3 fb 7f 3d 7b 1c 19 be
       -0.28669515 0.12730752 0.0624959 -0.1495227
000100 57 54 e4 bc ce 87 1d bd 7b a5 ec bb a2 05 c2 bd
       -0.027872248 -0.03845959 -0.0072218752 -0.094737306
000110 52 e2 f1 bd b6 90 ad bd 30 f2 9f 3d 7a d0 9c 3d
       -0.11810745 -0.08474867 0.078098655 0.07656951
000120 a6 7b 6d 3d 31 c2 2d bd e8 9c c8 bd b0 47 2e bb
       0.05797925 -0.042421523 -0.097955525 -0.0026593022
000130 31 df e0 bd c6 6c 29 bd fb d0 5c 3d 1f a3 c4 3d
       -0.109800704 -0.0413635 0.053910237 0.096014254
000140 cf 5b 1e 3b 69 88 b0 bd 41 38 c4 bd 5f 88 12 3e
       0.002416361 -0.08619768 -0.09581042 0.14309834
000150 3b bc 20 3d 15 62 93 3d 88 e2 98 bd d9 3f d6 3d
       0.03924201 0.07196442 -0.074650824 0.10461397
000160 87 9b b2 3d 89 66 80 3c ad ff c4 3b 94 ae a9 bd
       0.08721071 0.015673893 0.0060119242 -0.08285251
000170 14 ac 25 bc de b9 ba bd 0d 63 a5 3d 39 80 27 3c
       -0.010111827 -0.091174826 0.08075533 0.010223442
000180 48 32 80 3d f1 dd e2 bd c6 7b a2 3c a6 20 e4 3d
       0.062595904 -0.11077488 0.01983441 0.1113904
000190 88 80 bd bd c5 40 80 bd 3a 5b 48 3c 20 50 03 bd
       -0.09253031 -0.06262354 0.012228781 -0.032058835
0001a0 9d 51 17 3d aa 22 d6 bd a3 94 67 3d 80 0a 82 3d
       0.036943067 -0.104558304 0.056538235 0.06349659
0001b0 f5 e2 d3 3c 0b 8c 2f be 40 0a fd 3b d6 fe 84 3d
       0.025865057 -0.17143266 0.007722169 0.064939186
0001c0 f1 18 8f bd 7d c0 e9 bc 92 61 f5 bd 4c e1 9b 3d
       -0.06987179 -0.028534168 -0.11981501 0.07611331
0001d0 39 1c 87 3d 43 90 c1 3d 65 13 b7 bd 1f ce 71 3d
       0.0659718 0.09451344 -0.08939246 0.059034463
0001e0 b0 e0 33 3e dd 55 18 3d 70 87 fe bd fb ef 96 bd
       0.1756618 0.03719126 -0.124281764 -0.073699914
0001f0 c3 39 a2 bd 5b 87 e2 3d ec b2 49 bd b4 91 00 bd
       -0.079211734 0.11060973 -0.0492429 -0.031388953
000200 75 fa ba 3e 21 3a 10 be a5 78 ff bd ae cb b3 be
       0.3651921 -0.14084674 -0.12474183 -0.35116333
000210 c9 d3 5e be 1e ff 88 be 8f 1d 5c 3e 55 41 6c 3a
       -0.21760477 -0.2675714 0.2149565 0.0009012421
000220 e1 ba ab bd 32 37 15 3e 06 ee 38 3e 83 b2 64 be
       -0.08385254 0.14571837 0.18059549 -0.22333722
000230 ac e6 5b 3e d0 5c 51 3e 65 f8 7f be 27 25 38 3e
       0.21474713 0.20445561 -0.24997099 0.17982922
000240 11 74 bc 3d 1b d4 78 3e ff 9b 93 3e 82 3b 63 3e
       0.092018254 0.24299662 0.28829953 0.22190669
000250 e9 08 07 3e f9 6c eb bd 1b f1 84 be ed b0 26 3e
       0.13186993 -0.11495394 -0.259652 0.1627843
000260 30 62 fa 3d e3 9f 64 3e b6 78 b3 3d 07 84 14 3e
       0.12225759 0.22326617 0.08763258 0.1450349
000270 85 02 1c be 86 db 94 be 63 e3 9f 3e 04 17 a1 3e
       -0.15235336 -0.29073733 0.3122817 0.31462872
000280 ef 9e 03 be d2 d2 2d be 66 4a dd 3d 70 ba 59 3e
       -0.12853597 -0.16974953 0.10805206 0.21262527
000290 8d ee 73 be 0a ca c5 be 8a 8a ec 3d 95 51 fb bd
       -0.23821469 -0.38630706 0.11549862 -0.1227142
0002a0 9b 24 ab be 23 7d 2f 3e 71 7a cb bd 51 4c 6e bd
       -0.33426365 0.1713758 -0.09935463 -0.05817825
0002b0 9b e3 19 be fd e5 e2 3e 9b f7 06 be 44 74 15 3d
       -0.15028231 0.44316092 -0.13180391 0.036487833
0002c0 22 a8 d7 be fb d4 ab 3d 0f f0 b3 be b4 b3 4a be
       -0.42120463 0.08390232 -0.35144088 -0.19795114
0002d0 ad 55 8d be 20 1f ec bd 74 ec 59 3e e4 69 49 3e
       -0.27604428 -0.11529374 0.21281606 0.196693
0002e0 05 74 48 be 3c f6 c6 bc 05 66 78 3d 1a a9 e9 bd
       -0.19575508 -0.024287336 0.06064417 -0.11409207
0002f0 99 12 89 be b2 0b fb 3d 70 88 66 bd 0d 15 af be
       -0.26772 0.1225809 -0.05628246 -0.34195748
000300 ef f3 c4 bb 7a 0f fa bd 85 6a f4 bd a3 9b c7 3b
       -0.0060105245 -0.12209983 -0.119343795 0.0060915514
000310 a3 48 b4 bd cb b5 0e be a8 39 b5 3d 30 fd fe 3d
       -0.08802917 -0.13936536 0.08848888 0.124506354
000320 5f 2e d3 3b 1d cd 6b 3d 44 58 b4 3d 42 1b 8a 3d
       0.006444737 0.05756866 0.08805898 0.0674348
000330 4e 60 e2 3a ed 5f 8a 3d 0c da 9b bd 2d b3 bc 3d
       0.0017271133 0.06756578 -0.076099485 0.092138626
000340 a9 ce b0 bd 83 bb eb 3d 0c b6 eb bc 3a db 77 bd
       -0.08633167 0.115103744 -0.02877333 -0.060511805
000350 ef 49 b5 bd cb 35 9c 3d 6e 57 d7 bd 54 e8 47 bd
       -0.08851992 0.07627448 -0.10514723 -0.04880555
000360 60 3f 01 bd 12 9a 5e bd 21 3b b5 bc 9d e6 a0 bd
       -0.03155458 -0.05434615 -0.022122921 -0.07856486
000370 d0 b3 72 3d 80 38 14 3c d7 c1 a7 3c ec 41 a9 bd
       0.059253514 0.009046674 0.020478172 -0.08264527
000380 7d c6 02 be 1f f3 c6 bc e8 ac e7 bc 43 f5 95 3c
       -0.1277103 -0.024285851 -0.02828069 0.018305426
000390 6c 4a b0 3c 2e 97 bd bd 63 62 10 3e d3 f5 0b be
       0.021519862 -0.09257351 0.14100032 -0.13667993
0003a0 57 29 83 bd e7 22 cd bd 7b f5 be 3d 47 06 e3 3d
       -0.06404369 -0.10016423 0.093241654 0.11085182
0003b0 8d 27 1f 3d d7 44 81 3d 3c 09 c5 bc 50 e5 42 bd
       0.038856078 0.06311958 -0.024052255 -0.04758197
0003c0 60 58 1b 3d 47 8b 25 3c 87 8a 05 be 9b 7f b1 bc
       0.037926078 0.010104007 -0.13041125 -0.021667292
0003d0 f0 4e e2 bc a1 ee cb bd dc 60 b4 bd d3 45 2f bd
       -0.027625531 -0.09957624 -0.08807537 -0.0427912
0003e0 38 9c 37 bc 73 7b 1a bd 3a ad 9b 3c 55 e7 b5 3d
       -0.011206679 -0.037715387 0.0190035 0.08882014
0003f0 de 1a 33 bd 31 2b 94 bd 5e 76 cc 3d d7 cc 64 3d
       -0.043726794 -0.072348006 0.09983514 0.055859413

lstm.weight_hh_l1 f4 [256, 64]
000000 30 c3 69 3e 33 ba f6 3d 2f b5 39 3c 4b 06 83 3d
       0.22828364 0.120472334 0.011334701 0.06397685
000010 e8 1f 01 be 8a e6 07 3e aa 93 2a be 8b 32 e5 bb
       -0.12609828 0.13271537 -0.16657892 -0.0069945506
000020 ff b0 87 be ff 22 ba 3e ef 4f 02 bf cc 08 5d be
       -0.26502225 0.36354825 -0.5090322 -0.21585387
000030 dd dd 1d 3d 40 ad 18 3e d4 9d 19 bd 38 a7 1b be
       0.038541663 0.1490984 -0.037504032 -0.15200508
000040 fa 3b cf 3e df fc 34 bd ca c7 32 be 4b 46 51 3d
       0.40475446 -0.04418647 -0.17459026 0.051092427
000050 99 d1 45 bd ec c0 9b 3e c3 34 97 3e 47 8a 91 bd
       -0.04829559 0.30420625 0.29532441 -0.071064524
000060 0f f8 ba 3c 58 be 3b be ab 15 3f 3e 07 ed 15 bd
       0.022823362 -0.18334329 0.1866061 -0.036603
000070 4c 62 21 bd 34 ff da bd 9d e6 5c be 23 c8 31 3e
       -0.039400384 -0.106932074 -0.21572347 0.17361502
000080 ff db bc bd 5d ec b6 3d f1 12 37 be 4d 97 ad be
       -0.092216484 0.089318015 -0.1787832 -0.33904496
000090 14 a7 72 bd a2 17 53 bb a2 b1 7b 3d 37 c1 3f 3e
       -0.05924137 -0.0032210131 0.0614487 0.1872605
0000a0 f1 95 b8 3d bd 79 05 3e cd d9 d3 3d b1 b7 68 be
       0.09012974 0.1303472 0.103442766 -0.22726323
0000b0 4b d3 07 bf ab 2f ff bd 7b eb 18 be ba 25 31 be
       -0.5305678 -0.12460264 -0.14933579 -0.17299548
0000c0 eb fe 88 be 0f 99 b0 3d 58 94 5a 3e 49 b8 4a 3e
       -0.26756987 0.086229436 0.21345651 0.19796862
0000d0 d4 59 35 be 49 35 cc be 60 6f db bd ad 5f 67 be
       -0.17710048 -0.39884403 -0.107146025 -0.22595091
0000e0 ea 46 e9 bd 59 77 8a 3e 56 2b 09 bc 51 5b 9e bc
       -0.11390479 0.2704418 -0.0083721485 -0.019330652
0000f0 ae 10 85 bd 09 0f 15 bb c9 ea a5 bd aa fc 1f be
       -0.06497322 -0.0022744557 -0.08101422 -0.15623727
000100 6d 15 08 be 00 3a e1 bd f2 86 2a 3d 4f cc 84 3c
       -0.13289423 -0.10997391 0.0416326 0.016210703
000110 ed a5 d9 bc c4 03 b2 bd 79 d0 bf 3d 03 3d 91 3d
       -0.026568377 -0.086921245 0.09365935 0.07091715
000120 0c 50 f1 bd c7 27 d8 bb ef 68 59 3d b8 87 09 3e
       -0.11782846 -0.0065965387 0.053078588 0.13430679
000130 16 8e 66 3d eb 77 22 bd 4b b6 a5 bd c8 60 48 bd
       0.056287847 -0.039665144 -0.0809141 -0.048920423
000140 f7 68 ed 3d 5a 06 a4 3d a2 d7 02 3e 79 70 a7 bd
       0.11592286 0.08009024 0.1277757 -0.08175749
000150 29 95 d6 bd 04 8d 6c bb 64 b1 3f 3a 77 49 82 3d
       -0.10477669 -0.0036094794 0.0007312505 0.063616686
000160 50 97 2b bd a5 58 a3 bd 40 f2 86 3d 70 84 6a 3d
       -0.04189235 -0.07975892 0.06589174 0.05725521
000170 8f 0b a0 3d 2e be b4 3d 2d 42 92 3d 0d 65 5e 3d
       0.078147046 0.088253364 0.07141528 0.05429559
000180 c4 72 d1 bd 65 72 d8 bd 53 23 2b bc ee 33 4f bd
       -0.10226968 -0.10568694 -0.010445434 -0.050586633
000190 fe 6a a5 3b c8 c1 a7 3d b6 4a c1 bd 86 73 b1 3c
       0.005048155 0.08191258 -0.09438078 0.021661531
0001a0 11 5c 29 bd f1 45 08 3e 6b 6a 3a bd c6 05 7b 3d
       -0.041347567 0.1330793 -0.045511644 0.061284803
0001b0 07 3d be 3d 34 58 a5 3d 75 0a c3 bd 1a aa 9c bd
       0.09288984 0.08073464 -0.09523479 -0.07649632
0001c0 50 f6 87 3d ad 65 43 3d 48 ca 9d 3d ce ac ef 3c
       0.06638777 0.047704387 0.07704598 0.029257204
0001d0 35 e3 10 3e f6 95 43 3d cf ed 6a bd 4e b4 80 bd
       0.14149173 0.047750436 -0.0573557 -0.062843904
0001e0 f9 40 df bc 26 d8 de 3d 8d 65 85 3d e1 8c f5 3d
       -0.027252661 0.10881071 0.0651351 0.11989761
0001f0 61 4f 8a bc d9 a2 d4 3d 58 12 8e 3d 52 0a 82 3d
       -0.016883554 0.10382623 0.069370925 0.06349625
000200 94 d4 08 3f 38 d9 72 3e e1 40 34 3d 2f aa 0c 3e
       0.5344937 0.23715675 0.044007186 0.13736795
000210 9d 9c a5 be 21 53 2d 3e 60 9d 5d be 6f 25 a2 3e
       -0.3234605 0.16926242 -0.21642065 0.31669185
000220 46 9b 2a be aa 7b b0 3e 1c cb de be c3 86 54 be
       -0.16660795 0.34469348 -0.43514335 -0.20754533
000230 d4 7c 56 3e cd 50 46 3e bf b6 1f be 24 fc 64 be
       0.20946056 0.1936676 -0.15597056 -0.22361809
000240 a6 a9 38 3e 44 d4 be be 49 9b bf be eb f6 08 bd
       0.18033466 -0.3727132 -0.3742316 -0.033438604
000250 aa 2b 78 3d 8b e5 6d 3e 43 ae af 3e 5a 64 22 be
       0.060588516 0.23232095 0.3431264 -0.15858594
000260 e9 4e fe 3d 75 d5 a4 be c6 a1 b3 3e 11 fb a3 be
       0.12417395 -0.32194105 0.3508436 -0.32027486
000270 99 3f 7c 3d 19 63 af be 70 2d 6c be 91 21 9f 3e
       0.06158409 -0.34255293 -0.23064208 0.31080297
000280 d9 66 83 be 40 b9 82 3e f4 60 c3 be be f8 c7 be
       -0.25664404 0.2553196 -0.38159907 -0.39056963
000290 c9 9d 9a be 94 53 1e 3e 36 34 5d 3e a6 f5 fc 3d
       -0.30198506 0.1546157 0.21601948 0.12351541
0002a0 dc 9b ab 3e 52 10 8c 3e aa ba 81 3e 55 bd 7a be
       0.3351735 0.273562 0.25337726 -0.24486287
0002b0 cb ab 8d be 87 d2 d2 be 2f 0e 29 be 65 6c b2 be
       -0.2767013 -0.41176245 -0.16509317 -0.34848323
0002c0 ae 51 70 be ac 9a 95 3e 6a 15 64 3e 59 34 2e 3e
       -0.23468658 0.29219568 0.22273794 0.17012157
0002d0 e8 ae 88 be 8b 78 fd be 3e 33 d4 bd 9c 2f 6e be
       -0.26695943 -0.4950603 -0.10361336 -0.23260349
0002e0 06 17 8b be b4 93 01 3f 59 a1 de be c1 91 84 be
       -0.27166003 0.50616 -0.43482473 -0.2589245
0002f0 5b ef 73 be a5 66 83 bd aa 24 65 be cf 9e 77 3c
       -0.23821776 -0.06416062 -0.22377267 0.0151135465
000300 1e 48 c0 bc 3e 37 d3 3d 3e 6f 9c 3d a5 96 f5 3d
       -0.023471888 0.10313271 0.07638405 0.11991624
000310 04 3c 4b bc a8 cc 99 3d 49 33 b3 bd 13 47 d8 bd
       -0.012404446 0.07509738 -0.08750016 -0.10560431
000320 9a 1a f8 bd a1 fc 85 3e a7 2a 5f bd 08 66 4e 3d
       -0.12114449 0.26169303 -0.054484036 0.050390273
000330 bc 69 8a bc 98 1a ec 3a 0d 34 fe bd 26 8d 28 bc
       -0.016896121 0.0018013297 -0.12412272 -0.010287559
000340 12 4b 8a 3d 34 72 0b 3d a1 01 66 3d e1 35 c3 3d
       0.067526 0.03404446 0.056153897 0.09531761
000350 29 21 0c bd 4f 07 64 bc f2 2d 36 3d 2e f9 01 3a
       -0.03421131 -0.013917758 0.04447741 0.000495809
000360 96 fc eb 3d f0 97 8f 3d 33 65 41 bd b5 76 5a bd
       0.11522786 0.07011402 -0.04721565 -0.053335864
000370 12 d9 ac bd 9f 48 0c 3d 74 f2 5f bd 03 ec 8e 3c
       -0.084398404 0.034248944 -0.05467458 0.017446524
000380 30 23 cd bd 72 c7 0b be 1a bf d7 bd 69 cf b4 3c
       -0.10016477 -0.13650301 -0.105344966 0.022071557
000390 76 e6 c7 3c 64 df 12 bd 1d 49 e5 bd 93 d8 e5 bc
       0.024401885 -0.035857573 -0.11195586 -0.028057372
0003a0 f2 a3 de bc 22 6c f7 3d 01 ee 0b 3e dd 16 51 3d
       -0.027177785 0.120811716 0.1366501 0.051047195
0003b0 ad 80 ff bc 9d 14 fe 3d 28 ec fb bc 77 43 e3 bc
       -0.031189287 0.124062754 -0.030752257 -0.02774213
0003c0 10 65 c3 bd ce 27 25 bd 93 24 30 bd 61 bf b6 3d
       -0.095407605 -0.040321164 -0.04300363 0.089232214
0003d0 48 b3 9e 3d 99 8e 8c be 4f 6a 3c 3d 7a 8c 32 bd
       0.07749039 -0.27452543 0.04599982 -0.043591
0003e0 db 1f 9f bc a9 15 80 3d 3e bd 00 be cc c0 46 3d
       -0.01942437 0.06254131 -0.1257219 0.04852371
0003f0 20 ab c7 bd 9a 2f 68 3c f2 87 82 bc 27 70 dc 3d
       -0.097494364 0.014171505 -0.015933964 0.10763579

lstm.bias_ih_l1 f4 [256]
000000 3c f7 69 3d ee a9 c7 3d 6d e4 83 3d 30 5a 54 3d
       0.057120547 0.097492084 0.06440053 0.051843822
000010 ea dc 1b 3e ad 79 59 3d 82 57 ff 3d 0d 71 94 3c
       0.15220991 0.053094555 0.12467863 0.018120313
000020 04 07 18 3e be a7 de 3d 72 6c 06 3e 1c 66 4c bd
       0.14846426 0.10871838 0.13127306 -0.049902067
000030 26 d3 b0 3c f3 e1 87 bd ef 70 79 bd c4 00 c4 bd
       0.021585058 -0.06634893 -0.060898717 -0.095704585
000040 1c a3 1f 3d 12 6c 11 3e 34 c0 84 3d e3 fc 0a 3c
       0.038973913 0.14201382 0.06481972 0.008483144
000050 08 70 1a 3e 21 63 50 3e 4a b8 06 3e 74 da a9 3d
       0.15081799 0.20350315 0.13156238 0.0829362
000060 dd 50 bc 3d c5 96 ce bd 60 96 56 bd c3 b9 7f 3d
       0.09195111 -0.10087351 -0.052389503 0.062433016
000070 c3 c2 cd bd 8f 87 a1 3d 4c 89 f8 3c 81 16 2e bd
       -0.100469135 0.07887184 0.030338906 -0.04250193
000080 99 70 4f 3d d6 6b 07 3d 2e d4 fe bc 6d 86 6c 3d
       0.05064449 0.033061825 -0.031107035 0.057745386
000090 4c 90 2a bd 96 de 80 b8 8f a9 f8 3d d2 a4 ff bc
       -0.04164152 -6.1449755e-05 0.12141716 -0.031206522
0000a0 a3 01 86 3d 54 dc 9c 3d 23 58 6d 3c 94 0c 0d 3e
       0.06543281 0.07659212 0.014486345 0.1377433
0000b0 7e 57 6a bd d9 ea 13 3e 3d 81 ca 3c 6e 3e ba 3d
       -0.057212345 0.14445056 0.024719829 0.09093939
0000c0 48 53 17 3d 13 0d b2 bd 9e e4 69 bd bc 4e bb bc
       0.036944658 -0.086939 -0.057102792 -0.022864692
0000d0 e7 bc f6 b9 15 74 3d 3e 13 44 08 bc 89 bf 1e 3d
       -0.0004706152 0.18501313 -0.008317011 0.03875688
0000e0 ee fa eb 3d 2f 8b a2 bd a4 af ed 3c 43 ae b9 3d
       0.115224704 -0.079367034 0.029014416 0.09066441
0000f0 83 7c ad bd fc b2 79 bc a7 d1 17 3c 67 e1 a8 bc
       -0.08471014 -0.015240427 0.009266294 -0.020615293
000100 2a d2 e2 bb b7 f2 c4 bd 28 86 4a be 62 55 e1 3d
       -0.006922026 -0.09616607 -0.19777739 0.110026136
000110 62 e7 e5 bc 3c d7 d6 bd 82 e8 d5 b8 ca bb fa bd
       -0.028064433 -0.104902714 -0.000101999394 -0.12242849
000120 af 4b 2f be 3c d7 32 be 87 1e d1 3d 95 e3 bc 3c
       -0.17118715 -0.17464918 0.10210901 0.023057738
000130 b1 06 ba b9 0b 6a 29 bd 40 60 6b bc 5d 1d c9 bd
       -0.0003548167 -0.041360896 -0.0143662095 -0.09820054
000140 3c 0f d1 bc c2 67 fe 3d 25 01 be 3d ab 5c d1 3c
       -0.02551996 0.12422134 0.09277562 0.025556883
000150 06 d2 36 3d 02 6f 3f 3d 3e 64 e9 bd b3 e1 5f 3c
       0.044633888 0.046736725 -0.11396073 0.013664651
000160 e2 cb 4b 3d aa 16 06 3d d7 43 da 3d d2 28 f0 bd
       0.049754985 0.032736458 0.10657471 -0.11726536
000170 df 24 a5 3d 07 32 ec bd 7c a0 f6 bd 4f da 15 3c
       0.08063673 -0.115329795 -0.12042329 0.009146287
000180 61 93 9d 3c dd 78 36 3d 56 79 40 3d 9a b6 0c bd
       0.019235315 0.044548858 0.046990715 -0.03435383
000190 be d9 26 3c 74 54 b8 bc 35 38 68 bc ae 33 ed bd
       0.01018375 -0.022501208 -0.014173557 -0.11582123
0001a0 b5 df e7 bd c5 ce 5b 3d eb ce df bd 89 e6 38 be
       -0.113219656 0.053663988 -0.10928138 -0.18056692
0001b0 94 8f d5 3d 0e c5 71 3d c1 f6 97 3d e0 33 1b bd
       0.10427776 0.059025817 0.074201114 -0.03789127
0001c0 1b 27 a6 3c 3b 9e a8 bd ae 88 c4 3d 63 f8 00 be
       0.020282319 -0.08233305 0.09596382 -0.12594752
0001d0 26 44 e6 3d 13 f9 27 3d 47 1d 13 bd a2 7d 82 bd
       0.11243467 0.04100902 -0.035916593 -0.06371619
0001e0 67 56 25 3c 8a c0 af 3d 14 0d 79 bb f2 1d 12 3d
       0.010091401 0.08581646 -0.003800218 0.03567309
0001f0 e2 de d2 bd aa b6 af 3d d1 4b 5f bd c9 ab ce 3d
       -0.10296418 0.08579762 -0.054515664 0.10091359
000200 0c 4c 82 3d 87 79 f3 3d 7e 72 77 3c 67 04 84 bd
       0.06362161 0.11888414 0.015102981 -0.06446152
000210 0a 28 31 ba c7 c3 a9 3d a0 f7 58 bd f9 d7 89 3c
       -0.00067579804 0.08289295 -0.05297053 0.016826617
000220 5a 2f a9 bd b2 d1 bb 3c 4d 30 b5 bd 6c 16 d8 3d
       -0.08260985 0.022927139 -0.08847103 0.10551152
000230 9e 21 43 3c 0b a9 3e bd 6b eb ad bd 3a 92 03 bb
       0.01190987 -0.04654793 -0.08492168 -0.0020076171
000240 21 60 36 bd eb a6 ba bd a5 93 c0 bd ff 7e 89 3d
       -0.04452527 -0.09113868 -0.09403161 0.06713676
000250 f4 1d c2 3c 95 e8 54 bd 26 43 22 3d 1f ce f9 bd
       0.023695923 -0.05197962 0.03961482 -0.121975176
000260 ab 81 f9 bd b2 77 d3 3c e1 74 de 3c 63 df 8c bd
       -0.12182935 0.025813911 0.027155342 -0.06878545
000270 7e 07 e6 3d dc 31 e7 bd a5 9e cc 3d ff 8d 06 3d
       0.11231898 -0.11288807 0.099911965 0.03285026
000280 ac 65 2e bd 16 ad c0 3c 37 f0 57 bd c7 67 ab bd
       -0.04257743 0.023520034 -0.05271932 -0.08369403
000290 29 fa bb bd 61 b4 8a bb d8 b6 b4 3b 90 e8 0d bd
       -0.09178574 -0.0042329286 0.0055149607 -0.034645617
0002a0 6d e3 77 3d 53 dd 6e bd 44 4c 7d 3d bf 5b a0 bc
       0.060519625 -0.05831654 0.06184031 -0.019574998
0002b0 3f db 6c bd 47 9f 48 3d f8 ab 17 bd 64 39 4f 3c
       -0.057826277 0.048980024 -0.037029237 0.01264796
0002c0 38 86 81 3c a2 e6 04 bd 7f 43 c6 3d 57 6a a1 bd
       0.01581107 -0.03244651 0.096808426 -0.07881611
0002d0 56 e3 ec bc 13 7e e4 bd aa 5f 29 bd e0 61 b0 bd
       -0.028916996 -0.11156859 -0.041350998 -0.08612418
0002e0 0e 3b 38 bd ca 59 40 3d e2 aa 74 3d 53 3b a4 bd
       -0.044978194 0.04696063 0.05973328 -0.08019128
0002f0 52 d8 30 3d 6e 96 37 ba 03 12 05 be a9 09 c1 bd
       0.04317505 -0.0007003312 -0.12995152 -0.09425671
000300 79 c5 3e 3e 6e 65 9d bd 23 2f 9c 3d dc ea e2 3d
       0.18630017 -0.07685362 0.07626178 0.11079952
000310 3d bb 3f 3d 90 c2 ad 3d c3 57 ec 3d 5b fc df 3d
       0.046809424 0.084843755 0.11540177 0.10936805
000320 ef 84 dc 3d d7 2f 5d 3e 08 7e c0 3d b4 9e c0 bd
       0.107675426 0.2160028 0.093990386 -0.0940527
000330 15 d8 a0 bd 80 5b 0f bd f9 d9 16 bd f1 fe 2f 3c
       -0.078537144 -0.03499937 -0.03682897 0.010741935
000340 ad 3c a5 3d 4c 86 da 3c b5 50 11 3e 69 af cb ba
       0.080682136 0.026675366 0.14190944 -0.0015539947
000350 f4 10 d7 3d 98 7f 3d 3e 61 04 10 3e d6 a4 8e bc
       0.105012804 0.18505704 0.1406417 -0.017412584
000360 53 e0 be bb 77 75 f9 3d 7b a7 c3 3c 04 e1 3f 3d
       -0.0058250814 0.12180608 0.023883572 0.04684545
000370 f2 c1 99 3d e9 f5 74 bd fe 7c a0 3d 6f 24 b8 3d
       0.07507695 -0.05980483 0.0783634 0.08991324
000380 41 9a 16 3d c9 57 02 3d 11 d3 a6 bd 8e 87 5f bd
       0.0367682 0.031822 -0.081457265 -0.054572634
000390 f4 6a 28 3d 9f 99 aa 3d 5a ae 5a 3c 07 64 f9 3c
       0.041117623 0.08330082 0.013347233 0.030443205
0003a0 83 2c cd bd 31 85 77 bd dd 5a 92 bc 5d 0f 63 3e
       -0.100182556 -0.060429756 -0.017865593 0.2217383
0003b0 19 4c 08 3e da ef fd 3c 6a 1d e9 3c 4e 29 6b bd
       0.13310279 0.03099816 0.028456409 -0.057412438
0003c0 57 b2 10 3d e5 4d e5 bc ff 8a 18 bd 8e 1e 24 bd
       0.035326328 -0.027991245 -0.037241932 -0.0400682
0003d0 11 4f e3 bd 27 10 ba 3d 84 c1 8b bd 3a fe 68 bd
       -0.11099065 0.09085112 -0.068240196 -0.056883074
0003e0 f8 6b 42 3d 9c 8e 75 3d 0a ee fb 3b b1 ee 91 3d
       0.04746625 0.059950456 0.0076882886 0.07125605
0003f0 76 a2 6b 3d 3d b3 9e bd 90 c9 9d 3c c3 a7 6c 3c
       0.05752798 -0.07749031 0.019261152 0.014444294
